snake/model/model.pth (torch, 16799 bytes, 4 tensors)

linear1.weight f4 [256, 11]
000000 ff 7e 1e bd 1a ea 16 bf 4a a0 43 3e 2a 64 b3 be
       -0.03869533 -0.5895096 0.19104114 -0.35037357
000010 0e 8a 27 be dc 6e 4f 3d 9a be d7 be f1 29 53 3e
       -0.16361257 0.050642833 -0.42137605 0.20621468
000020 03 d5 55 be d9 42 8d be 4f 2a 97 3e 03 92 81 3e
       -0.20882039 -0.27590063 0.29524466 0.2530671
000030 47 0d e3 3d c9 32 96 be 6f 31 7d 3e 39 a7 5b be
       0.11086517 -0.2933562 0.24725889 -0.21450509
000040 69 b5 c3 3e 85 21 36 3e d7 8a 07 be 7d 55 b0 3e
       0.38224342 0.17786224 -0.13236557 0.34440222
000050 75 6b fc be 54 a4 1c bf 76 0a e6 bd a2 02 4a be
       -0.49300733 -0.61188245 -0.11232464 -0.19727567
000060 94 1c b8 3d 1c 3d 12 be 7e f4 66 be bd 0c 01 be
       0.08989826 -0.14281124 -0.22554204 -0.12602516
000070 b4 04 61 be 0e 8d 98 be 68 af 6f 3e a5 dd 88 be
       -0.2197445 -0.29795116 0.23406756 -0.267316
000080 c1 74 28 be 49 ed 3b 3c 8a 9e 41 3d 18 f0 7c 3e
       -0.16450788 0.011470147 0.047270335 0.24700963
000090 e6 c3 11 bf 58 6c a8 be 5f 45 d2 be 0f e4 82 3a
       -0.5693954 -0.3289516 -0.4106855 0.000998618
0000a0 5b 88 62 be 0c 83 cb 3c 6c 78 08 3e ea 64 9a be
       -0.22122328 0.024842761 0.13327187 -0.30155116
0000b0 62 6e cd be 0c 63 dc bc 60 84 13 bf 9f 2c a8 3e
       -0.40123278 -0.026902698 -0.57623863 0.32846543
0000c0 77 6e f6 be ea e3 7b be 18 30 a9 3e 1d 90 77 be
       -0.48131153 -0.24598661 0.33044505 -0.24176069
0000d0 ca 44 cc 3e 3f 67 05 bd 87 26 2a bf 99 bd da 3d
       0.39896232 -0.032569166 -0.6646504 0.10680694
0000e0 dd e1 37 3f 1c f4 20 3e c3 0c cd 3e 91 cf e7 bd
       0.71829015 0.1571812 0.400488 -0.11318887
0000f0 e5 36 58 bf a5 42 ed bd f5 e8 a9 be 4b eb a0 3e
       -0.8445876 -0.11584977 -0.33185545 0.31429514
000100 0a d8 1a be 3e 20 a6 3e fd 21 c1 be d8 95 af 3b
       -0.15121475 0.32446474 -0.37721244 0.005358439
000110 b5 7e ab be d9 1a ca 3e 97 e1 9b 3e ec b3 60 3e
       -0.33495107 0.39473608 0.3044555 0.21943635
000120 02 52 c2 3e 2d f7 15 bf 75 a7 11 bf fc 23 8e be
       0.37953192 -0.58580285 -0.56896144 -0.2776183
000130 3f 0d 02 bd c5 a4 1d bf 65 65 d6 3e c1 95 f0 3e
       -0.031750914 -0.61579543 0.41874233 0.46989253
000140 07 f4 df bd 53 1e 0f bb 77 02 95 bd 02 72 80 3c
       -0.109352164 -0.0021838143 -0.07275861 0.015679363
000150 b9 b0 cd bd f2 e0 65 be b7 ce c9 be 3e 6d b0 be
       -0.10043473 -0.22449091 -0.39415523 -0.34458345
000160 d4 20 17 3f 78 ad ac 3d 68 06 00 bf be c3 ac 3e
       0.59034467 0.08431524 -0.50009775 0.3374309
000170 14 2a 4e be 97 43 24 be 3e eb ad be 2d 82 c4 be
       -0.20133239 -0.16041408 -0.33968538 -0.38380566
000180 1e 2f e1 3d 78 e5 1e 3d 68 4c bb 3c 1b 0f ae 3e
       0.10995315 0.038793057 0.022863582 0.339959
000190 c9 2e 0d bf 98 a5 81 3e 2c a8 c1 be 84 ef b4 be
       -0.55149513 0.2532165 -0.37823617 -0.35338986
0001a0 f1 ed d4 3e 6f ac b2 3e ca 25 78 3e 36 22 10 3e
       0.41587785 0.3489718 0.24233165 0.1407555
0001b0 4a 92 0a bf dc 3f 07 bf c5 de db be 40 fe 27 be
       -0.5412947 -0.52831817 -0.42943397 -0.16405582
0001c0 16 78 9d be 1f 30 fd 3e b7 7c a5 be 79 2b 89 3e
       -0.3075568 0.49450776 -0.32321712 0.2679098
0001d0 1f 42 eb be be 3c f7 be e5 c5 e3 be d0 e1 f9 be
       -0.45948884 -0.4828853 -0.4448692 -0.48805094
0001e0 91 36 c6 3e ed c4 ff bc c6 6e 36 bf dd 67 6b 3d
       0.38713506 -0.031221831 -0.71262777 0.0574721
0001f0 58 ae fa 3c f0 de b5 3d a8 86 e6 3d 17 e6 43 bf
       0.030600712 0.088804126 0.112561524 -0.76522964
000200 ad 8d bc be 1e ff 98 be d5 09 ec bd 74 63 2b bf
       -0.3682684 -0.2988214 -0.11525313 -0.6694863
000210 58 64 5f be e2 e3 65 3e e8 b7 ae bd 81 71 90 3e
       -0.21815622 0.22450212 -0.08531171 0.28211597
000220 ce 67 64 be 58 26 6b be 76 7b 12 3f 9f 1a 6b 3e
       -0.22305223 -0.22963846 0.57219636 0.22959374
000230 32 c0 e1 be 2a af 1e bf b9 2b 71 3e 48 1b 6d 3e
       -0.44091946 -0.6198603 0.23551835 0.23154938
000240 e1 cc 41 3e b9 23 b6 3e 60 aa 82 be 9d 39 08 be
       0.18925811 0.3557413 -0.2552061 -0.13303228
000250 77 11 55 bc 67 58 93 be 38 4d 9f 3e f0 2c 79 3e
       -0.013004652 -0.28778383 0.311136 0.24333549
000260 34 47 30 3e f3 6c c6 3e 8f 66 46 3e 3f 6f bc 3d
       0.17214662 0.38754997 0.1937506 0.09200906
000270 7d 5f 74 be ab 92 1a 3f be ab 09 3f b1 b1 93 be
       -0.23864551 0.6038005 0.5377768 -0.28846505
000280 19 43 bb be 3b 1b 28 bf 51 a3 4e bf c8 25 ee 3d
       -0.3657463 -0.6566655 -0.8071795 0.116283
000290 53 0a 12 3e 13 32 c7 3e 76 35 c9 be 70 75 3f 3e
       0.14261751 0.3890539 -0.392986 0.18697143
0002a0 69 d6 a4 bd ff 6d c2 be 10 49 17 be 5c 8f 77 be
       -0.08048708 -0.37974545 -0.14773965 -0.24175781
0002b0 52 6e e9 be 88 29 36 be d2 56 ae be f1 4a 08 bf
       -0.4559198 -0.1778928 -0.34050614 -0.5323935
0002c0 bc aa f0 3b 83 8c 16 3e 1e cc ad bd e0 de 08 3f
       0.007344572 0.14702038 -0.08486198 0.5346508
0002d0 0f 00 34 3e d5 7b a2 be 18 01 c9 be 13 1e 1a bf
       0.17578147 -0.317351 -0.39258647 -0.6020214
0002e0 05 40 31 be 4f 03 c0 3e 07 2a be be ce ab 0e 3f
       -0.17309578 0.37502524 -0.3714144 0.55730903
0002f0 0e 36 55 3e 62 e9 3b bf 03 01 d1 be 88 61 3e be
       0.20821401 -0.7340299 -0.40821084 -0.18591893
000300 6a 74 e6 bd 90 63 62 bd f4 6d 5b bd a6 e8 a8 3d
       -0.11252673 -0.05527073 -0.053571656 0.08247499
000310 78 7d 9e bd bc 2d 8f be c1 89 f0 be 5e aa 9d 3d
       -0.07738775 -0.2796458 -0.46980098 0.076985106
000320 aa 46 80 3d 2f 4f 1c bd fb 23 56 be 40 39 92 3d
       0.06263478 -0.038161453 -0.20912163 0.07139826
000330 bf df b1 bd 39 b8 97 be 56 ab c1 bd 3f 25 51 bd
       -0.08685254 -0.29632738 -0.09456508 -0.05106091
000340 fa 14 cd bc e4 0e 87 3e 7c 7a 09 bf 0f 2d 0e bd
       -0.025034416 0.26378548 -0.5370252 -0.03471094
000350 04 eb 9d 3d 01 d0 f0 3e 9a ec c9 bd 65 1c 8f be
       0.07710841 0.47033694 -0.09859581 -0.2795135
000360 67 dd e6 3e 51 ae 1e 3e dd 32 49 bf e0 dd 0d bf
       0.45090792 0.15496184 -0.78593236 -0.5541668
000370 34 8e df 3e 46 9c b3 3e a8 0a 29 3f d7 2b 2d be
       0.4366318 0.35080165 0.66031885 -0.16911255
000380 74 62 80 be a1 e5 39 be 29 41 06 be ac bc da 3e
       -0.25075114 -0.18154003 -0.13110794 0.4272207
000390 b3 69 01 3f db 1c e8 3e 91 5e f9 3e 1e e2 82 bc
       0.5055191 0.45334515 0.4870496 -0.015976962
0003a0 d2 b0 80 be c4 ca 65 3c e0 60 41 bf 7b d4 e1 3e
       -0.25134903 0.014025394 -0.75538445 0.44107422
0003b0 c1 f1 a2 3e 9e 89 c9 be cf 84 45 bf 32 47 5f 3e
       0.3182507 -0.39362806 -0.77155775 0.21804503
0003c0 91 97 f8 3d 6e e7 27 bf e0 e7 e6 3e 7a d9 e1 3e
       0.12138284 -0.6558751 0.45098782 0.44111234
0003d0 4c 14 2b 3f 84 c4 84 bd d6 ca a0 be 6b 11 16 be
       0.66827846 -0.06482795 -0.31404752 -0.14655082
0003e0 65 f2 86 3c 7f 64 ab be 85 d4 d5 bd a8 50 a5 be
       0.016473005 -0.3347511 -0.104409255 -0.32288098
0003f0 3d 9a ff be 0b 7e 55 3e f2 aa d5 be 28 01 43 bf
       -0.49922362 0.20848863 -0.41731983 -0.7617364

linear1.bias f4 [256]
000000 f9 7f a3 be 5f 18 0f be 74 ff 93 be a3 0e 40 be
       -0.31933573 -0.1397414 -0.28905833 -0.18755583
000010 90 fc fc bd c6 42 d1 be 71 94 b2 3f c1 9a e6 3d
       -0.1235286 -0.40871257 1.3951551 0.11259986
000020 30 ae 06 be 7b f8 10 be 73 84 44 3b d8 62 8d 3e
       -0.13152385 -0.14157288 0.0029986172 0.27614474
000030 25 5f b2 3b 80 2b f5 be 72 80 92 3d 65 f1 26 be
       0.005443471 -0.4788475 0.07153405 -0.16303022
000040 70 85 83 be 2e 0f 8d be c6 ad 8a be f7 a4 9f 3e
       -0.25687742 -0.27550644 -0.27085704 0.31180546
000050 b0 5b d1 be fe 90 83 3e b8 45 0e bf d4 f8 02 3f
       -0.40890265 0.25696558 -0.5557513 0.5116093
000060 fe 31 5d be 0c 55 e2 3d 6b e3 c2 3e fb 3d 76 3f
       -0.21601102 0.11051378 0.3806413 0.96188325
000070 72 42 06 be 5e 77 73 bd 65 63 64 be a2 78 32 be
       -0.13111284 -0.05944001 -0.22303541 -0.1742883
000080 33 fb 86 be 6a 60 d0 3d 70 e2 95 be e3 cc 03 3f
       -0.26363525 0.101746395 -0.2927432 0.5148451
000090 c6 7b 34 bf 03 f4 a1 be e6 ac 65 be 2e 6b 41 3d
       -0.70501363 -0.3163148 -0.22429237 0.047221355
0000a0 d8 d3 9f be 9a 98 8e 3d 6d ec 62 be 76 b3 11 bf
       -0.3121631 0.069627 -0.22160502 -0.5691446
0000b0 42 43 ac be 02 07 8d 3f 0e 37 82 3e 63 58 7b be
       -0.33645064 1.1017764 0.25432628 -0.24545436
0000c0 06 9c 4a be 55 3a 2e be 20 91 57 be 9b eb 77 bd
       -0.1978608 -0.1701444 -0.21051455 -0.060527425
0000d0 ea a8 9a be a8 78 2c be 9a 57 09 be 6e 4c e4 bd
       -0.30206996 -0.16842902 -0.13412324 -0.1114739
0000e0 23 bc b2 be fe 95 90 be 3a 3b 48 3d b8 60 ba be
       -0.34909162 -0.28239435 0.048884608 -0.36401916
0000f0 61 19 0a bf cc b6 59 be 16 5e da be 40 25 ac be
       -0.53944975 -0.21261138 -0.42649907 -0.3362217
000100 34 cb 84 3e 4c bd 10 bf 33 e1 96 be 41 2d 8b be
       0.25936282 -0.56538844 -0.29468688 -0.27182963
000110 31 0c 90 be 14 a6 d7 ba 9f 5b 94 be e2 7f 89 3d
       -0.281343 -0.0016452693 -0.2897615 0.06713845
000120 62 f3 f7 3e 53 d2 6c 3e 85 67 4e 3c f1 9d 78 bc
       0.48427874 0.23127107 0.012597923 -0.015174375
000130 c6 7c 8b be 14 54 73 be b1 05 8e 3e b7 06 ca be
       -0.27243632 -0.23762542 0.27738717 -0.39458248
000140 a6 8c c2 be f6 27 05 bf 8f b3 ef 3e e4 95 6a be
       -0.3799793 -0.520141 0.4681668 -0.22908741
000150 12 06 e3 be a1 19 99 be 13 2b dc bd 31 fa 0b be
       -0.4434057 -0.29902366 -0.10750403 -0.13669659
000160 51 95 54 3e d9 13 86 3d 6b cf 52 be 67 59 c3 be
       0.20760085 0.065467544 -0.20586936 -0.38154146
000170 b4 00 b6 bc 89 92 6c be af 6f be be 94 fb 99 3e
       -0.022217132 -0.23102774 -0.37194583 0.3007475
000180 15 27 ed bd ca 33 fc be 46 35 11 3f 18 50 82 be
       -0.1157972 -0.49258262 0.56721914 -0.25451732
000190 51 58 ca be 79 25 ed be c6 cc d3 bd c8 5c 66 be
       -0.39520505 -0.46317652 -0.10341792 -0.2249633
0001a0 45 12 b9 bd ce 83 b2 be 3e 14 c5 be e6 40 70 3f
       -0.09036688 -0.34866184 -0.38492006 0.9384903
0001b0 52 c1 61 be d0 7a 36 bd 90 92 00 bf 16 df 07 3e
       -0.22046402 -0.044550717 -0.50223637 0.13268694
0001c0 e4 01 16 3e bf a1 4c bd 40 0e d3 be c7 b7 20 be
       0.14649159 -0.04995894 -0.4122181 -0.15695105
0001d0 46 d4 a4 be 7d 95 d2 be b4 c4 73 be dc ec 23 3f
       -0.32193202 -0.41129676 -0.23805505 0.64033294
0001e0 a8 b6 04 3e 9e 66 41 3e 6c 1d 81 bd d8 7c 57 3d
       0.12960303 0.18886802 -0.0630444 0.052609295
0001f0 2c 73 cf be ba 46 8f be 87 4e f9 bd dc 02 41 3c
       -0.40517557 -0.27983648 -0.12173181 0.011780467
000200 23 8a 10 3f 85 e7 76 3d 58 17 10 be be b9 12 bf
       0.5646078 0.060279388 -0.14071405 -0.5731467
000210 98 e2 80 3c 20 f2 8d be ae 22 08 3f 0f 11 a4 3d
       0.015733048 -0.2772379 0.53177917 0.08011066
000220 4a 54 d1 bd ab b6 ab 3d b0 b9 a0 be 3f 91 c6 bb
       -0.10221155 0.083844505 -0.31391668 -0.006059795
000230 b2 bc a9 be b8 a7 bf be d8 31 f7 bd 8c cd 38 3d
       -0.33151776 -0.37432647 -0.12070054 0.0451179
000240 b5 9c a6 be 60 d8 b0 3b 50 d3 a6 be 1d d1 97 be
       -0.32541433 0.0053968877 -0.32583094 -0.29651728
000250 db b1 dc bc 32 0d 14 bf 61 a9 3a bd 26 76 f5 be
       -0.026940277 -0.57832634 -0.04557169 -0.47941703
000260 1d 47 89 be 92 62 96 be 91 c4 fd ba 0f d6 9d be
       -0.26812068 -0.29372078 -0.001936095 -0.30827376
000270 55 5f f4 be eb 2c a0 bd 9e f8 8f 3d 35 68 39 be
       -0.47728983 -0.078210674 0.07029842 -0.18106158
000280 28 39 0f bf 3b ea 68 3d ce 18 df be 83 1b a2 be
       -0.5594659 0.056864005 -0.43573612 -0.31661615
000290 3b 48 eb bd 84 44 0e bf dd ac fa be 9e e2 81 3e
       -0.11488386 -0.55573297 -0.4896001 0.25368208
0002a0 61 cb ce 3e 0d 74 9b be 73 a0 cd 3c 4d 27 8c be
       0.4038954 -0.30361977 0.025100922 -0.27373734
0002b0 a4 64 f5 be c4 33 4d be 44 77 be 3e e4 22 b8 3e
       -0.47928345 -0.20039278 0.37200367 0.3596412
0002c0 45 6a f8 be 76 6f a8 bb cc 47 9e be a0 1d 81 be
       -0.48518577 -0.0051402403 -0.30914152 -0.25217915
0002d0 aa 5a b1 be 82 48 3e be f9 61 14 bf dc 53 0c be
       -0.34639484 -0.18582347 -0.57961994 -0.13703865
0002e0 a0 b1 0d 3d ad 80 ee bd a9 e5 83 be f3 43 93 3d
       0.034593225 -0.11645637 -0.25761154 0.07190695
0002f0 a2 81 8b 3e 73 e8 0e bf fa 76 06 bf db 5e 8c 3e
       0.2724734 -0.5582344 -0.52525294 0.2741612
000300 e8 ba 3f 3e a6 fb 88 be 77 85 09 be b0 bf a8 be
       0.18723643 -0.26754493 -0.13429819 -0.32958746
000310 f5 58 89 3d de 06 7f bd cb ef d6 3e a9 25 34 bc
       0.0670642 -0.06226241 0.41979823 -0.010995307
000320 1c 02 0b bf 2d 88 4e be 8d 1c 92 3e e3 e0 02 bc
       -0.54300094 -0.20169134 0.28537408 -0.0079881875
000330 06 ff 8c bd 8c fe 97 be 3a cd 6e be 55 9a de be
       -0.06884579 -0.2968639 -0.23320475 -0.4347712
000340 6c 58 6c bd bd ec 82 be ef a7 d7 be f8 ee 7e be
       -0.057701513 -0.25571242 -0.4212031 -0.24895847
000350 7c 9b 6e bd 83 f6 89 3e 39 8a d5 bd 94 61 0e bf
       -0.05825375 0.26945886 -0.104267545 -0.5561764
000360 b4 0f 88 be 21 ac ed be 07 b3 e6 be e7 00 69 be
       -0.2657448 -0.46420386 -0.45058462 -0.2275425
000370 53 bb 1a be ee 9b e9 be 31 1e c7 be 2e 8d 38 bd
       -0.15110521 -0.45626777 -0.38890222 -0.045056514
000380 ef 3d b8 3d 9f 8a 04 bf 0e c4 26 bf 9f eb db 3d
       0.08996188 -0.5177402 -0.65142906 0.107383005
000390 b6 2d 9e 3e 9a fb 81 3e 08 82 c4 be 9b 1c d5 bb
       0.3089425 0.2538727 -0.38380456 -0.006503654
0003a0 e6 ae f3 be fc fc 38 bf 7b 7f be be bf 84 9a be
       -0.47594374 -0.72261024 -0.37206635 -0.30179402
0003b0 1d 11 ca bd ed 31 03 bb e9 27 9c be ad ef 35 be
       -0.09866545 -0.0020018772 -0.304992 -0.1776721
0003c0 f5 48 b2 be 35 2f 03 3e e7 27 cf be f6 90 94 be
       -0.34821287 0.12810977 -0.4046013 -0.29016846
0003d0 a9 bd c5 be e7 b0 ab be f7 c7 c1 bd e2 52 64 3d
       -0.38621262 -0.33533403 -0.094619684 0.055743106
0003e0 7e 57 95 bd c6 18 45 be 35 8d 3d 3e 42 5a ad be
       -0.072920784 -0.19247732 0.18510897 -0.33857924
0003f0 19 38 2d be 97 2f ed 3e b5 63 e9 be 9e 8d c0 be
       -0.16915931 0.4632537 -0.45583883 -0.37608045

linear2.weight f4 [3, 256]
000000 b9 31 ba bd c2 63 55 be 14 84 b4 3c 25 fb 4d 3e
       -0.09091515 -0.20838836 0.022035636 0.20115335
000010 7e 96 82 be 17 7a b4 bd a4 99 a3 3e e6 26 11 3e
       -0.2550544 -0.08812349 0.31953156 0.14174995
000020 4a 8d ca be f5 51 ae be 71 8e cd be db 92 9e 3d
       -0.3956092 -0.34046903 -0.40147737 0.07742854
000030 41 4f a7 3e 5a 35 5b bd ef eb 08 bf 33 03 e9 bd
       0.32677653 -0.053517677 -0.53485006 -0.11377563
000040 ec be 45 bd 7f f3 45 3d 6d 8e 95 ba cb ee 80 3e
       -0.04827778 0.04832792 -0.0011410244 0.25182185
000050 e4 37 33 be 6b d4 b1 3e 49 47 a5 bd e4 33 04 3f
       -0.1750179 0.34732375 -0.08070237 0.5164168
000060 a5 85 87 bc 21 c0 d5 3e aa b5 1d 3e cc 97 5d 3e
       -0.016543219 0.41748145 0.1540133 0.21639937
000070 f5 01 d7 be 65 33 64 bc 94 d0 61 3c f6 84 b6 bd
       -0.4199368 -0.013928269 0.013782639 -0.08912079
000080 79 d2 ce be d8 14 c0 3e 1e 61 92 be ca e8 e6 3d
       -0.40394953 0.37515903 -0.2858972 0.1127487
000090 04 61 8c be ec 50 5d be d0 d5 2e be 83 f8 53 be
       -0.27417767 -0.216129 -0.1707375 -0.20700268
0000a0 70 12 73 bd 66 92 58 3e ac 14 ea be 3a 42 ff bb
       -0.059343755 0.21149597 -0.45718896 -0.0077898772
0000b0 ac 96 c8 bd ea aa 01 3f 99 ea e3 3d d0 8b 42 bc
       -0.097943634 0.5065142 0.1112873 -0.011874154
0000c0 f0 ec 37 bc f0 55 2e be f3 3f 15 bd 2f b4 97 be
       -0.011225924 -0.1702497 -0.03643794 -0.29629657
0000d0 bc 1b 03 bc ab c4 f8 bd 92 25 ba be d1 0b 11 3b
       -0.008002218 -0.121468864 -0.3635679 0.0022132287
0000e0 13 f8 cb bc c7 b8 91 be 4e 03 e6 3e 92 27 86 be
       -0.024898564 -0.28461286 0.44924396 -0.26202065
0000f0 fe 24 b1 3c 59 46 92 bc ae fa c6 be 69 82 a6 bd
       0.021624085 -0.01785581 -0.38863128 -0.081303425
000100 01 51 14 3e 54 16 08 bc fa 58 65 bd fc 00 01 bd
       0.14484026 -0.008306105 -0.055993058 -0.03149508
000110 cd 2f 58 be b2 c2 a0 be 88 2d 90 bc ed a8 73 be
       -0.21111985 -0.3139854 -0.017599836 -0.23794909
000120 0d eb b1 3e 32 c4 ca 3e 79 8a f3 3d 1d 29 4d bd
       0.34749642 0.3960281 0.11891646 -0.050088037
000130 0a 6d 33 bd 2d 0c f4 be 9b 2d cf 3e 9d 5a 73 ba
       -0.04380516 -0.4766554 0.40464482 -0.0009283217
000140 49 0d b7 bc ff d1 da b9 7f f2 91 3e 9d 3c ff ba
       -0.022345202 -0.0004173666 0.28505322 -0.001947302
000150 9c 2f 16 3e 65 ff aa bd 76 12 5c bc d5 76 14 bd
       0.14666599 -0.08349494 -0.013432136 -0.03624614
000160 2e 03 b4 3e e3 df 4b be 0c f6 9c bd b8 ce 7b bc
       0.35158676 -0.19909625 -0.07664117 -0.01536911
000170 7e 81 ac 3e bf b6 17 bf 9a 42 2b be 34 8d ba 3e
       0.33692545 -0.59263223 -0.16724625 0.36435854
000180 b5 9d 8d bd ed 56 11 3c 7a 82 cd 3d bd 93 8b 3e
       -0.06914846 0.008870822 0.10034652 0.27261153
000190 71 b3 b1 bd 82 66 a6 be 3c d2 82 bc 5b 43 ec bb
       -0.08676804 -0.32500082 -0.015969388 -0.007210178
0001a0 ea 0d cd be 1f 7f 3d 3e 86 9d 42 bc 9e 58 51 3e
       -0.40049678 0.18505524 -0.011878377 0.20443961
0001b0 8e c7 e5 3c 3b e2 0d bf 89 08 cd bc 1b dc 23 3f
       0.028049257 -0.55423325 -0.025028484 0.6400773
0001c0 52 c7 5d 3a 8b 65 d5 bc 84 39 41 be 81 45 8b 3e
       0.0008460182 -0.026049396 -0.18869597 0.27201465
0001d0 f5 b9 27 be d0 2e 28 bd a3 d4 18 be 82 1f 69 3e
       -0.1637953 -0.04106027 -0.14924864 0.22765926
0001e0 0f d5 fa 3e 39 43 83 3e 0c f8 1e 3e 45 6d ea 3d
       0.48990676 0.25637224 0.1552431 0.11446623
0001f0 b5 4a dc bd 91 d7 2a bb 80 cc 2c be e5 87 42 3e
       -0.10756437 -0.002606843 -0.16874886 0.18997152
000200 23 16 c7 3e 77 c7 c2 be 5f 22 36 bf eb 75 6f be
       0.38884076 -0.38042805 -0.71146196 -0.23384826
000210 22 69 62 be f9 d5 8a be 51 af 52 3e 0b 05 ba 3e
       -0.22110417 -0.27116373 0.2057469 0.36331972
000220 4c 72 8e be 9c 53 b7 be 27 d1 dd bd 5f e8 80 3e
       -0.27821577 -0.35805976 -0.10830908 0.25177285
000230 47 b1 e0 bd 1c 54 b2 bc 71 6c 06 bf 76 71 78 be
       -0.10971313 -0.021768622 -0.5250922 -0.24262032
000240 b0 bf 10 be 8a a0 42 3e 0b 94 1b bd 73 bf 86 be
       -0.14135623 0.19006553 -0.03798298 -0.2631794
000250 4e ee 80 bd d3 a6 f7 3b 1b 0c 87 be 36 a6 4b 3c
       -0.06295453 0.007557729 -0.26376423 0.0124297645
000260 31 6c ac bc 9e 99 ba bd cd 0f ad 3e 5f 90 4e be
       -0.021047683 -0.091113314 0.33801118 -0.2017226
000270 43 f0 af 3e a7 56 2d bf db ae 57 bd c4 f9 0d be
       0.34362993 -0.67710346 -0.05265699 -0.1386481
000280 4b 6b d3 bc 5a 20 89 3e f0 68 c6 bb 0a 52 b3 3c
       -0.025807997 0.26782495 -0.00605499 0.021889705
000290 28 a6 ca bb 72 24 fc ba 8f 19 23 3d b3 30 86 3e
       -0.006184358 -0.0019236936 0.039819296 0.2620903
0002a0 d7 72 81 3e 46 f5 26 be 1e 35 01 3f f6 6b d3 bc
       0.25282928 -0.16304502 0.50471675 -0.025808316
0002b0 ee 56 32 be 34 4e a0 bd bd 58 f8 3e 85 10 29 3e
       -0.17415974 -0.07827416 0.48505202 0.16510208
0002c0 e7 9f 76 bd c4 df ac be 51 2f d4 bd bc c8 6e 3c
       -0.06021109 -0.3376447 -0.103605874 0.014574226
0002d0 68 1c 8c 3d a0 bf 30 bc 82 fd c9 bc c7 15 1b bf
       0.068413556 -0.010787874 -0.024657015 -0.60580105
0002e0 12 7d 91 3e 1c 48 f7 be 46 82 e7 bd b9 e3 a1 3e
       0.28415734 -0.48297203 -0.113041446 0.3161905
0002f0 c7 94 82 3e 3f ee 97 bc f2 06 b7 be af c2 9f 3e
       0.25504133 -0.018546222 -0.35747486 0.3120322
000300 8f dc 59 3e 2a 1a b1 be 6f cf c0 bd 54 b2 82 3a
       0.21275543 -0.34590274 -0.09414565 0.0009971359
000310 61 4b 06 3e 9b 35 99 3e ae 9a cf 3e 77 ad ad bd
       0.13114692 0.2992371 0.405477 -0.084803514
000320 a3 eb 17 bc 08 49 e5 be 38 91 09 3d 52 40 ca be
       -0.009272489 -0.4478228 0.033585757 -0.39502198
000330 17 34 d5 3a 4e a1 e2 bd 56 8d b7 be 80 62 02 3e
       0.0016266134 -0.11065923 -0.35850018 0.12732887
000340 f2 4a b1 3b f3 d5 07 bf d4 22 e7 ba 1a 53 0b bf
       0.0054105455 -0.53060836 -0.0017634281 -0.5442368
000350 91 28 00 bf c8 83 03 3f d4 21 8d be 21 a8 d2 3d
       -0.500619 0.5137296 -0.2756487 0.10285974
000360 8e 28 e6 be b2 cc 72 3d 40 c5 2c be bb d3 bc 3d
       -0.44952816 0.059277244 -0.1687212 0.09220072
000370 b7 b2 c3 3d 22 b8 7d bd c1 51 47 3c f8 86 a7 3e
       0.095555715 -0.06194318 0.012165488 0.3272016
000380 dd 46 d2 3c d4 30 55 be dd 89 df be 9d f8 d0 3e
       0.025668556 -0.20819408 -0.4365987 0.40814677
000390 72 15 14 3e 98 7b c0 3e 5d 3d c2 bd 4e 3a de 3e
       0.14461306 0.37594295 -0.0948436 0.43403858
0003a0 1f d7 69 3e b7 da 0c bc 4b b0 6c be bb 72 a0 3d
       0.22835968 -0.008597068 -0.23114125 0.07834383
0003b0 54 2e fd be c4 20 af 3e 54 54 36 3c c8 14 14 be
       -0.49449408 0.34204686 0.011128504 -0.14461052
0003c0 33 65 83 be aa 69 ff 3e bf 77 d9 3c 4a 12 16 3c
       -0.25663146 0.49885303 0.026546357 0.009159634
0003d0 14 b7 b8 bb 07 b9 aa bc 42 af 28 3c e9 d8 e0 3c
       -0.005637059 -0.020840181 0.010295691 0.02744718
0003e0 98 e6 3f bd c5 1f cb bb d7 27 e3 be 96 eb a5 bc
       -0.04685077 -0.0061988556 -0.44366333 -0.020253938
0003f0 b7 98 4d 3c 5c 7b 27 3f 4d 89 a4 bd 26 26 6b 3c
       0.012548617 0.65422606 -0.080340005 0.014352357

linear2.bias f4 [3]
000000 60 e9 c5 3e 22 bd f0 3d 8a b1 de 3a
       0.38654613 0.11754824 0.0016990167
